…
                - 55
            "3":
                - 2
                - 22
                - 23
                - 35
                - 34
                - 55
            "4": 3.9.20
            "5": 0.18.7
            "8":
                - 1
                - 5
            "12": 0.18.7
            "13": darwin-arm64
action_noise:
    value: None
action_space:
    value: Box(0.0, 1.0, (4,), float32)
actor:
    value: |-
        Actor(
          (features_extractor): FlattenExtractor(
            (flatten): Flatten(start_dim=1, end_dim=-1)
          )
          (mu): Sequential(
            (0): Linear(in_features=9, out_features=512, bias=True)
            (1): ReLU()
            (2): Linear(in_features=512, out_features=512, bias=True)
            (3): ReLU()
            (4): Linear(in_features=512, out_features=4, bias=True)
            (5): Tanh()
          )
        )
actor_batch_norm_stats:
    value: '[]'
actor_batch_norm_stats_target:
    value: '[]'
actor_target:
    value: |-
        Actor(
          (features_extractor): FlattenExtractor(
            (flatten): Flatten(start_dim=1, end_dim=-1)
          )
          (mu): Sequential(
            (0): Linear(in_features=9, out_features=512, bias=True)
            (1): ReLU()
            (2): Linear(in_features=512, out_features=512, bias=True)
            (3): ReLU()
            (4): Linear(in_features=512, out_features=4, bias=True)
            (5): Tanh()
          )
        )
algo:
    value: DDPG
batch_size:
    value: 32
buffer_size:
    value: 1000000
critic:
    value: |-
        ContinuousCritic(
          (features_extractor): FlattenExtractor(
            (flatten): Flatten(start_dim=1, end_dim=-1)
          )
          (qf0): Sequential(
            (0): Linear(in_features=13, out_features=512, bias=True)
            (1): ReLU()
            (2): Linear(in_features=512, out_features=512, bias=True)
            (3): ReLU()
            (4): Linear(in_features=512, out_features=1, bias=True)
          )
        )
critic_batch_norm_stats:
    value: '[]'
critic_batch_norm_stats_target:
    value: '[]'
critic_target:
    value: |-
        ContinuousCritic(
          (features_extractor): FlattenExtractor(
            (flatten): Flatten(start_dim=1, end_dim=-1)
          )
          (qf0): Sequential(
            (0): Linear(in_features=13, out_features=512, bias=True)
            (1): ReLU()
            (2): Linear(in_features=512, out_features=512, bias=True)
            (3): ReLU()
            (4): Linear(in_features=512, out_features=1, bias=True)
          )
        )
device:
    value: cpu
env:
    value: <stable_baselines3.common.vec_env.subproc_vec_env.SubprocVecEnv object at 0x1696ac340>
ep_info_buffer:
    value: deque([], maxlen=100)
ep_success_buffer:
    value: deque([], maxlen=100)
gamma:
    value: 0.99
gradient_steps:
    value: 1
learning_rate:
    value: <function cosine_schedule_with_warmup.<locals>.func at 0x16969d8b0>
…
